bert_fragoza/125115_W390R.npy (npy, 3200 bytes, 1 tensors)

array f4 [1, 768]
000000 e9 b1 cf 3e b1 b9 3e bf ca 4c 60 bf f5 d9 8d 3d
       0.40565422 -0.7450209 -0.8761717 0.06926338
000010 56 de 9c be f2 83 fc 3d bd 58 80 3d 45 03 b9 bd
       -0.3063838 0.12329854 0.062669255 -0.09033827
000020 68 24 34 bf 63 eb 23 3e ac 55 be bd c6 b7 9e be
       -0.7036805 0.16007762 -0.09293684 -0.30999583
000030 f8 61 44 3f 73 eb 15 3f f1 c9 a7 be 58 d1 80 3f
       0.7671199 0.5856239 -0.32771257 1.0063887
000040 ab 45 85 3f d7 e6 66 3d 99 09 c8 3e 22 eb 82 bf
       1.0411886 0.05637249 0.39069822 -1.0228007
000050 2a 10 60 3f b0 04 08 c0 b4 fe 25 be df 82 5a 3e
       0.87524664 -2.125286 -0.16210443 0.21338986
000060 50 29 48 bf f2 1f 43 be 2b 7f 70 3f e9 05 99 be
       -0.7818804 -0.19055155 0.9394404 -0.29887322
000070 38 7b 00 bf 22 8e 02 3f 90 04 81 3f c3 3e 8a be
       -0.50188017 0.5099813 1.0079517 -0.27001008
000080 04 75 a9 3f fa 81 ad bf c0 4f 48 3f 46 6d e2 be
       1.3238835 -1.3555291 0.7824669 -0.44223994
000090 8b 23 c3 bc 50 54 82 bf 0f 63 86 bf 64 b3 a1 bf
       -0.02382066 -1.018198 -1.049898 -1.2632871
0000a0 9e 59 8d 3e ec af 6f be 7b c4 07 3f ce a3 17 3f
       0.27607435 -0.23406953 0.5303418 0.5923432
0000b0 fb 9a 7f 3d 61 7e 03 3f 28 dc 9d be d0 5c d2 bd
       0.06240366 0.51364714 -0.30832028 -0.10271609
0000c0 00 0a 97 3e d4 b5 8a bd 5a 0d 30 3f cf ab 53 3e
       0.29499817 -0.06772962 0.6877037 0.20671009
0000d0 93 d0 52 be a7 9d b5 3d 2c 87 0d 3f a3 5c 97 bf
       -0.20587377 0.088679604 0.5528438 -1.1825145
0000e0 93 c4 8d be de 80 8e bf 4a d7 cc be 46 95 66 be
       -0.27689037 -1.1133077 -0.40008003 -0.22517881
0000f0 ad 28 43 be 17 f1 19 be 85 97 18 bf b8 61 79 3d
       -0.19058485 -0.15033375 -0.596062 0.060884207
000100 c9 bc 6d 3e 17 54 84 bd 09 e1 4b be b0 a6 51 bf
       0.23216547 -0.06461351 -0.19910063 -0.8189497
000110 60 b9 2d bf 37 69 f0 3e a5 f8 72 3f 68 94 53 bd
       -0.67860985 0.46955273 0.9491065 -0.051655203
000120 b8 99 57 be 2f 15 ce 3e c7 2f 99 3f 32 25 9d bf
       -0.21054733 0.40250537 1.1967705 -1.2276976
000130 ee fa 2d bf 77 8c c0 bc 49 e5 9f 3b 48 d6 b2 3e
       -0.67961013 -0.023504479 0.004879628 0.3492911
000140 db c7 76 3d aa fa 77 bf 52 f5 2d 3f 43 1e e0 be
       0.06024919 -0.9686686 0.67952454 -0.43773088
000150 f8 24 e6 3e f1 e1 69 bd 43 e9 9e 3d bb e9 82 be
       0.4495008 -0.05710024 0.07759335 -0.25568947
000160 88 20 aa be 13 ae 16 bf 89 e0 b5 3e 67 5f 84 bf
       -0.33227944 -0.58859366 0.3552287 -1.0341614
000170 90 c0 d6 bd 76 05 16 be 60 a2 bb 3e 87 91 2c 3f
       -0.10485947 -0.1465052 0.3664732 0.6740956
000180 c4 25 ac bb a0 78 67 bd fc aa 30 3e 0d 60 21 3e
       -0.0052535255 -0.05651152 0.17252725 0.15759297
000190 ce 9e 7f 3f b4 fc cd 3d d8 82 91 be 93 34 f4 bd
       0.9985169 0.10057965 -0.28420138 -0.1192409
0001a0 61 d5 a4 3e e1 cd 3e 3f 0b d5 4b bf 90 7f 5d bd
       0.32194045 0.74532896 -0.7962195 -0.05407673
0001b0 69 66 df be 62 d0 23 3e 9a e7 0a 3f c1 50 51 bf
       -0.4363282 0.1599746 0.54259646 -0.81763846
0001c0 d3 3d 45 3f 69 26 df be 29 4d b0 3e 49 9d 05 3e
       0.7704746 -0.43583992 0.3443387 0.13048281
0001d0 18 cf 73 be 97 8d 44 bc f4 07 00 3f 52 7b 43 be
       -0.23809469 -0.011996648 0.50012136 -0.19090012
0001e0 db 72 47 3f 30 e3 23 be ef cf b2 3e 53 9b 74 bd
       0.7790963 -0.16004634 0.34924266 -0.05971844
0001f0 40 9a ec 3d 41 e8 b5 3e 01 ba 63 be e9 75 95 3f
       0.11552858 0.35528758 -0.22238924 1.1676608
000200 f5 c1 27 be 09 d7 39 bc 8c 43 0c 3f 43 33 c6 3e
       -0.16382582 -0.011342772 0.5479057 0.38710985
000210 3b 94 bc 3e 92 0c 86 bf c2 be 39 3e 2a 99 31 bf
       0.3683184 -1.0472586 0.18139175 -0.69374335
000220 6b d5 9d be 1b 0a 58 3f 36 6b b7 3e a6 ef 8f 3e
       -0.30826887 0.8439042 0.35823983 0.28112525
000230 48 a8 fd be b1 66 51 be 12 15 7a bf bf 2f 56 3f
       -0.4954245 -0.2044933 -0.976884 0.83666605
000240 01 3e d8 3c bf 00 5f bf dc de dc 3e a0 7f 57 bf
       0.026396753 -0.87110513 0.43138778 -0.84179115
000250 33 1a 48 bf 53 e1 14 bf 46 35 4b 3f 32 4f 66 bf
       -0.78164977 -0.5815632 0.79378164 -0.8996459
000260 2f fe bb 3e 53 cc 14 3f 4f 2c 46 3e 62 12 fc 3d
       0.36717364 0.58124274 0.1935284 0.12308194
000270 05 70 33 be 99 6f 3f bf 0f ab 9b be d1 cb e7 be
       -0.17523201 -0.7477966 -0.30403945 -0.45272687
000280 8e 73 1c bd a7 83 4f 3f 6d 55 94 bd 76 c1 c3 bd
       -0.03819614 0.8106026 -0.07242856 -0.09558384
000290 d5 16 93 bd db 9b 50 3f 91 54 ae be 8c ab 0b 3f
       -0.07182089 0.81487817 -0.34048894 0.54558635
0002a0 cf 27 74 bc 0d 8a d1 be 10 ed 34 bf da d3 9a bf
       -0.014902069 -0.40925637 -0.7067423 -1.2095902
0002b0 49 f4 a8 be d7 24 0f 3e c1 4d 7d 3f d7 88 00 bf
       -0.32998875 0.13978897 0.9894677 -0.502088
0002c0 84 24 b5 3e 24 1f 72 3f dd a6 71 be 3e 2d fd be
       0.35379422 0.94578767 -0.2359881 -0.4944858
0002d0 1c f6 43 bf e5 b6 11 3f a0 f2 1a 3e b6 c6 11 3f
       -0.7654741 0.569197 0.15131617 0.56943834
0002e0 e7 63 74 be b0 ea b0 3f ec 3f 49 bd b3 a9 2f 3f
       -0.23866235 1.3821621 -0.049133226 0.68618315
0002f0 de 5d 1a 3e 45 67 43 3d 41 7a 23 3f 43 66 e4 bd
       0.1507487 0.047705907 0.6385842 -0.111523174
000300 e2 75 10 3f f8 71 bd bd 71 da b2 be 9b 16 98 be
       0.56429875 -0.092502534 -0.34932283 -0.29704747
000310 6c 90 24 bf 47 d8 5d 3f 00 5f f7 3e 9e 65 b4 3e
       -0.6428287 0.8665814 0.48314667 0.35233778
000320 54 e9 6f bd ae ad 8b be b2 a8 1f 3f 00 5d 7b bf
       -0.05857213 -0.27280945 0.62366784 -0.9818878
000330 a4 83 2c bf 8c 83 19 3f 37 36 48 3e 75 aa 04 3e
       -0.6738837 0.5996635 0.19551931 0.12955649
000340 d7 a4 0b be 29 1a c4 3e b6 84 41 3f 4a 39 86 3e
       -0.136371 0.3830121 0.75593126 0.26215583
000350 4b ed 1e 3e bf 40 af 3d 86 e3 95 3e de 34 1d bd
       0.15520208 0.08557271 0.2927515 -0.038380496
000360 2f 3b 89 3b cf 91 7e be 60 59 31 bd d9 72 03 be
       0.0041879634 -0.24860309 -0.043298125 -0.1283678
000370 84 3b 57 bf a3 f0 43 3f e0 f3 cf be ec 07 34 3f
       -0.8407519 0.7653906 -0.4061575 0.7032459
000380 48 d6 8e be 81 66 40 bf 74 b2 18 3e 0e 14 1b 3f
       -0.2789786 -0.7515641 0.14911824 0.60577476
000390 5c 31 31 be 10 04 91 be 67 10 91 bf b7 d6 16 bf
       -0.17303985 -0.28323412 -1.1333131 -0.5892138
0003a0 05 a1 1f be 4c d3 8d 3f ae 02 96 be a3 af 02 bf
       -0.15588768 1.1080108 -0.2929892 -0.5104925
0003b0 7d f1 f2 3e 16 43 2a 3f 95 a0 1e be ee d9 cc be
       0.47449866 0.66508615 -0.15490945 -0.40010017
0003c0 a1 e0 97 be c8 4b ae be 42 59 13 be 72 e3 fb be
       -0.29663566 -0.34042192 -0.14389518 -0.49196965
0003d0 4c 3f 56 3f dc c9 8f bf e1 60 9d bd 46 80 14 be
       0.83690333 -1.1233478 -0.07684494 -0.14502057
0003e0 0d c2 f9 3d db 35 c8 3a 6c 41 68 bf 1a e0 b3 bd
       0.121952154 0.0015274839 -0.90724826 -0.08782978
0003f0 60 bc ce be db b6 7f 3f d8 94 5a 3e dc a0 6f be
       -0.40378094 0.9988839 0.21345842 -0.23401207
