bert_fragoza/160419_W292R.npy (npy, 3200 bytes, 1 tensors)

array f4 [1, 768]
0	0x3ed08eb7	0.40733883
1	0xbf77ba32	-0.96768486
2	0xbf0f7cfe	-0.560501
3	0x3ed53e49	0.41649082
4	0x3e69a959	0.22818507
5	0x3e1eac8a	0.15495506
6	0x3d819c62	0.06328656
7	0x3f0a5f02	0.5405122
8	0xbefccb87	-0.4937403
9	0x3f2050b7	0.6262316
10	0xbf050f8f	-0.51976866
11	0x3d852e55	0.06502978
12	0xbd4ab417	-0.049488153
13	0x3ed4e0e9	0.41577843
14	0xbed483f7	-0.4150693
15	0x3eca5769	0.39519814
16	0x3f37c2b7	0.71781486
17	0x3eb9e2aa	0.36305743
18	0x3ed29d29	0.4113553
19	0x3cfdd4f9	0.030985342
20	0x3fdae1ae	1.7100122
21	0xbfaf5c05	-1.3699957
22	0x3ea14ef4	0.3150555
23	0x3f627f19	0.88475186
24	0x3d7a8e23	0.06117071
25	0x3d1b858e	0.037969165
26	0x3f8a303a	1.0795968
27	0xbec3245f	-0.38113686
28	0xbeef7f2e	-0.46776718
29	0x3f13963e	0.57651126
30	0x3f1da99e	0.6158694
31	0xbf2e549a	-0.6809784
32	0x3fa38b25	1.2776839
33	0xbf57a71e	-0.84239376
34	0x3f8d6838	1.104743
35	0xbef8f983	-0.48627862
36	0xbed1fd85	-0.41013733
37	0xbf810af3	-1.0081466
38	0xbf8ba085	-1.0908362
39	0xbf79cd0e	-0.97578514
40	0x3e2445d2	0.1604226
41	0xbf3d70a9	-0.7400003
42	0x3f490558	0.7852378
43	0x3eb36877	0.35040638
44	0xbf05a2dd	-0.52201635
45	0xbf3b3205	-0.731232
46	0xbe24b33a	-0.16083995
47	0xbf1a85a7	-0.6036019
48	0x3f13d5ca	0.5774809
49	0xbe7afd22	-0.24510625
50	0x3ee61d88	0.44944406
51	0x3f19ae49	0.60031563
52	0xbf4d84f2	-0.80280983
53	0xbeabf579	-0.33585718
54	0x3db8d18d	0.09024344
55	0xbf99ffd1	-1.2031194
56	0xbe434580	-0.19069481
57	0xbf5ceaf8	-0.86296034
58	0xbc151daf	-0.009101315
59	0xbe212005	-0.1573487
60	0x3f8cf593	1.1012443
61	0xbf81e9db	-1.0149492
62	0xbf31093e	-0.6915473
63	0x3e7c0f57	0.24615227
64	0x3f307f99	0.689447
65	0x3f1cd38a	0.61260283
66	0xbf2f177c	-0.6839521
67	0xbf209def	-0.6274099
68	0xbf87b23a	-1.0601265
69	0x3d4c75f4	0.049917176
70	0x3f88b25d	1.0679432
71	0xbe8cf65b	-0.27531704
72	0xbf5e57b2	-0.8685256
73	0x3f1b0a68	0.60562754
74	0x3c7bcb0e	0.015368236
75	0xbf891e9d	-1.0712467
76	0xbf8c1b55	-1.0945841
77	0xbd738954	-0.05945714
78	0xbf574b77	-0.84099525
79	0xbe3e348a	-0.1857473
80	0xbed83ffc	-0.42236316
81	0xbd6b43f2	-0.057437845
82	0x3f751c28	0.9574609
83	0xbe25bac0	-0.1618452
84	0x3ef2f7bd	0.47454634
85	0x3a8bdf28	0.0010671364
86	0xbba3f17b	-0.005003152
87	0xbf8015c6	-1.0006645
88	0xbf98efc5	-1.1948172
89	0xbf08fda0	-0.53512
90	0x3ed248be	0.41071123
91	0xbf5184c3	-0.81843203
92	0x3bd4168d	0.006472415
93	0xbe8a81c2	-0.27052122
94	0xbf3b2caa	-0.73115027
95	0x3f5a1294	0.851846
96	0x3ea61685	0.32439056
97	0x3f4f2184	0.80910516
98	0x3f0b3326	0.5437492
99	0xbdf480f2	-0.11938657
100	0x3f59ccf8	0.8507838
101	0x3f41ed90	0.75753117
102	0xbf41bcd7	-0.7567877
103	0x3f2ab83f	0.6668739
104	0x3ed0feba	0.4081934
105	0x3f871e1e	1.0556066
106	0xbf61153f	-0.87923044
107	0x3f369aea	0.7133013
108	0xbea182e3	-0.3154517
109	0x3f03d0ca	0.5149046
110	0xbe183955	-0.1486562
111	0xbf199ef2	-0.60008156
112	0x3ec02db7	0.37534878
113	0xbed1bc14	-0.40963805
114	0x3eab0be7	0.33407518
115	0xbe5a9c7c	-0.21348757
116	0xbd0f1ad2	-0.034937687
117	0xbea45192	-0.32093483
118	0x3eaafbd7	0.33395264
119	0xbf76017e	-0.96096027
120	0x3ea9fa3d	0.3319873
121	0xbe1a896a	-0.15091482
122	0x3ebbf6e3	0.36711797
123	0xbe5dee43	-0.21672921
124	0x3e7da87c	0.24771303
125	0x3e954149	0.2915137
126	0xbfa6dc34	-1.3035951
127	0x3f475409	0.778626
128	0xbf52722d	-0.8220547
129	0xbedcafcf	-0.4310288
130	0xbef1988f	-0.47186705
131	0x3f47aa14	0.77993894
132	0x3f14780f	0.57995695
133	0xbf029a45	-0.51016647
134	0x3d582a0d	0.052774478
135	0x3f317ff3	0.6933586
136	0x3da5901b	0.080841266
137	0x3f9981ed	1.1992775
138	0xbe0216c5	-0.12703998
139	0x3ef200b6	0.47266167
140	0xbf7ac96d	-0.979636
141	0xbec72882	-0.38898093
142	0xbf134d40	-0.5753975
143	0x3f5875fc	0.8455503
144	0xbef65afe	-0.48116297
145	0xbfa5b8df	-1.2947043
146	0x3edb04bf	0.42777058
147	0x3ec6b00c	0.38806188
148	0xbf8eb2fc	-1.1148372
149	0x3ea627ce	0.32452244
150	0x3fa79fbd	1.3095623
151	0xbf846c3b	-1.0345529
152	0x3ef13a6d	0.47114888
153	0x3ea2b8c4	0.3178159
154	0x3e079f15	0.13244279
155	0x3f6e43aa	0.93072
156	0x3cf50f2c	0.029914461
157	0x3d86359b	0.06553193
158	0xbf06db43	-0.52678317
159	0xbe9a0f85	-0.30089965
160	0xbd862e02	-0.06551744
161	0x3eac2e9b	0.33629307
162	0xbf249708	-0.64292955
163	0xbf519c7e	-0.81879413
164	0x3e0c2c3b	0.13688748
165	0xbd69b3c2	-0.057056196
166	0xbf069f61	-0.5258694
167	0xbf0a1429	-0.5393701
168	0xbd8a26ab	-0.067456566
169	0xbebf01b4	-0.37305987
170	0xbf3c993d	-0.73671323
171	0xbfa66605	-1.2999884
172	0xbecc6b1e	-0.39925474
173	0x3ec83704	0.39104474
174	0x3f47f47a	0.78107417
175	0xbf0305c5	-0.5118068
176	0x3da4aba3	0.080405496
177	0x3f7a8326	0.97856367
178	0x3ec8295e	0.3909406
179	0xbf14e18f	-0.58156675
180	0xbfba255c	-1.4542651
181	0xbe5201dc	-0.20508522
182	0x3d463665	0.04839172
183	0x3f4a2f0a	0.78978026
184	0x3e9bc882	0.30426413
185	0x3f2a86ad	0.6661175
186	0x3f1d6bb5	0.6149247
187	0x3f942b2f	1.1575679
188	0xbf20c740	-0.6280403
189	0x3e2dd857	0.16977058
190	0x3f25fa6a	0.64835227
191	0x3ee068a8	0.43829846
192	0x3f019a7b	0.50626343
193	0xbed0d632	-0.40788418
194	0x3f3279de	0.69717205
195	0x3f57d502	0.843094
196	0x3d573094	0.052536562
197	0x3f553237	0.83279747
198	0x3f08fb09	0.5350805
199	0x3e982f22	0.2972346
200	0xbe9dce54	-0.30821478
201	0xbf30a832	-0.69006646
202	0xbeb1e7aa	-0.34747058
203	0xbf0f4d63	-0.5597746
204	0x3f91bca4	1.1385694
205	0x3f0e678b	0.55626744
206	0x3e259fa0	0.16174173
207	0xbea1fdc8	-0.31638932
208	0xbe7d5399	-0.24738921
209	0xbe9d8eba	-0.30772954
210	0x3d36864f	0.04456168
211	0x3db3d86e	0.08781515
212	0xbd371c32	-0.044704624
213	0x3e908896	0.28229207
214	0xbedcde37	-0.43138286
215	0xbf966de7	-1.175229
216	0x3f3d926f	0.74051565
217	0xbf1936e8	-0.59849405
218	0xbea12432	-0.31472927
219	0x3d9df1e2	0.07712151
220	0xbfaefdd9	-1.3671218
221	0x3ee0816f	0.4384875
222	0xbe9e0d7e	-0.3086967
223	0xbf015960	-0.50527
224	0xbe57abf7	-0.21061693
225	0xbf38435d	-0.7197779
226	0x3ee97b38	0.4560182
227	0x3f979210	1.184145
228	0xbde4dec3	-0.11175301
229	0x3e56afea	0.20965543
230	0xbf51add7	-0.81905884
231	0xbf791f8d	-0.9731377
232	0xbf3e95c4	-0.74447274
233	0x3f7da081	0.99073035
234	0xbf135312	-0.5754863
235	0xbe4b6f97	-0.19866787
236	0x3ed6af7c	0.4193076
237	0x3ed94348	0.42434144
238	0x3e17e878	0.14834774
239	0xbe5f58ff	-0.21811293
240	0xbec12570	-0.37723875
241	0x3e2f7483	0.1713429
242	0xbe842f98	-0.2581756
243	0x3e8fcd23	0.28086194
244	0x3dd7d8fe	0.10539435
245	0xbfa48dea	-1.2855809
246	0x3ea0a8b2	0.31378704
247	0xbf15c805	-0.5850833
248	0x3f67f45f	0.90607256
249	0xbf4ed223	-0.80789393
250	0xbef53dde	-0.47898763
251	0x3d9706cf	0.073743455
252	0xbfca5e8d	-1.5810105
253	0xbe615f9a	-0.22009125
254	0x3e824907	0.2544634
255	0xbe2c7c29	-0.16844238
