bert_fragoza/283150_W127C.npy (npy, 3200 bytes, 1 tensors)

array f4 [1, 768]
0.14334232 -0.8431321 0.22766533 -0.10734059 0.333891 -0.16684653 0.8414294 0.052728157
-0.368232 0.18031554 -0.60634273 -0.043254443 0.24159473 1.0515581 -0.65545696 0.31895062
0.8627723 0.21916462 0.4412027 -0.2850131 1.2515253 -1.1951275 -0.17182116 0.0147955725
-0.042791042 0.2807694 0.9480956 -0.5340074 -0.572994 0.45799202 0.5002436 -0.45917764
1.5058752 -0.78291494 0.6431677 -0.33799464 -0.5507632 -0.51040965 -0.7162063 -1.0652965
0.097602114 -0.18488745 0.18977986 0.43042296 -0.64216226 -0.20933595 0.045590498 -0.77350605
-0.06666112 -0.11542198 0.037744127 0.42325217 -0.8672947 -0.5255622 -0.25980526 -1.0863283
0.0041442337 -0.7469761 -0.15224604 -0.17268457 0.26424354 -0.80993265 -0.42994556 -0.13263744
0.475148 -0.32689276 -0.5920997 -0.9720745 -0.8815865 0.3985293 0.6190113 0.04692089
-0.6246841 0.4398237 -0.013453256 -0.637753 -0.48494357 -0.14643896 -0.43627596 -0.6385459
-0.53258705 -0.563928 0.25553972 -0.035693 0.2366484 0.20114255 -0.2125444 -1.3587776
-0.5833629 -0.4920703 0.3248416 -0.89956653 0.88505167 -0.15827215 -0.23308986 0.6182912
0.35384914 1.0346205 0.7634419 -0.4758196 0.8315655 0.53744245 -0.2258676 0.37238723
0.55721724 0.9088118 -1.2509279 0.21690086 -0.3798453 0.51642466 0.19618437 -0.3566897
-0.22307016 -0.61948836 0.30659023 -0.2703096 0.31024718 0.21530536 0.47528708 -0.63083714
0.43221506 -0.24637115 0.30518186 0.5481158 0.70595264 0.44754112 -0.6521018 1.0147113
-0.38240644 -0.25989574 0.15428737 0.9390213 0.72617096 -0.45805368 -0.09587284 0.21137029
-0.35526207 0.9640075 -0.21100253 0.33079964 -0.8702414 0.018464746 -0.2161514 0.6376529
-0.29744813 -1.1257267 0.6563287 0.3663212 -0.9636739 0.10628129 0.4472869 -0.8379445
0.28621233 0.007684453 -0.3476816 0.39831647 0.47988293 0.35110795 -0.25883323 -0.20005527
-0.35628015 0.3771736 -0.2948459 -0.37449494 0.22669858 0.08257247 -0.43544057 -0.51486963
0.118819654 0.036457703 -0.3640324 -0.6193851 -0.46828544 0.28385353 0.6992203 -0.5629709
0.2708117 0.86959153 0.1832055 -0.829961 -0.7716965 0.08278819 -0.14895725 0.54993016
-0.7323554 0.7561463 0.7928641 0.79978895 -0.0389919 -0.011615653 0.57594174 0.2786161
0.19172798 0.14170778 0.52723455 0.5378837 -0.0024157364 0.4308511 0.18751809 0.22018948
-0.29594737 -0.7128453 -0.044674903 -0.31452575 0.5001666 0.6099831 -0.04282148 -0.42274582
-0.4810243 -0.2050553 0.042314112 -0.09777951 0.357978 0.23253241 0.02405586 -0.58503133
0.5723358 -0.56004566 -0.36643496 0.49572617 -1.0244199 0.6160036 -0.021044627 0.06455851
0.12517205 -0.20306325 0.17050757 1.1521542 0.17497075 -0.68165106 -0.76638323 -0.6068268
-0.78260434 0.73160243 -0.015530235 -0.12133454 0.4745036 0.4227797 0.061367035 -0.5101485
-0.58461964 0.0071858126 -0.030445779 0.4193752 -0.39130524 -1.208049 -0.0074175564 -0.292364
0.53165364 -0.35999736 -0.82313263 0.19335532 -1.0938064 -0.06425493 0.08851774 -0.1784355
00000000: 54c8 123e 81d7 57bf 1a21 693e 62d5 dbbd
00000010: c3f3 aa3e d1d9 2abe eb67 573f 7bf9 573d
00000020: e888 bcbe a3a4 383e 4739 1bbf 922b 31bd
00000030: 9c64 773e 7599 863f 07cc 27bf 7f4d a33e
00000040: a5de 5c3f b16c 603e 52e5 e13e 3ded 91be
00000050: fb31 a03f f0f9 98bf e3f1 2fbe 2169 723c
00000060: a945 2fbd 02c1 8f3e 65b6 723f b5b4 08bf
00000070: bcaf 12bf ee7d ea3e f70f 003f 5519 ebbe
00000080: 85c0 c03f 1d6d 48bf a3a6 243f a20d adbe
00000090: d1fe 0cbf 35aa 02bf 4c59 37bf a35b 88bf
000000a0: 9ee3 c73d 2353 3dbe a755 423e 6660 dc3e
000000b0: bf64 24bf 2a5c 56be 1abd 3a3d 7e04 46bf
000000c0: a085 88bd 5c62 ecbd 9699 1a3d 82b4 d83e
000000d0: 0707 5ebf 3f8b 06bf 3205 85be ce0c 8bbf
000000e0: 5acc 873b d339 3fbf 63e6 1bbe 39d4 30be
000000f0: ee4a 873e bf57 4fbf d321 dcbe 1cd2 07be
00000100: 9946 f33e 7d5e a7be d993 17bf e0d9 78bf
00000110: a7af 61bf 080c cc3e 8677 1e3f 1f30 403d
00000120: 4ceb 1fbf 9230 e13e 0c6b 5cbc c843 23bf
00000130: 864a f8be 18f4 15be 905f dfbe be77 23bf
00000140: a057 08bf 965d 10bf 1ad6 823e d332 12bd
00000150: f553 723e 50f8 4d3e 3da5 59be 6dec adbf
00000160: 4557 15bf a3f0 fbbe a351 a63e fe49 66bf
00000170: bf92 623f 1812 22be 1caf 6ebe 5548 1e3f
00000180: b72b b53e 726e 843f ee70 433f a09e f3be
00000190: 7ae1 543f d495 093f d649 67be 8aa9 be3e
000001a0: caa5 0e3f e4a7 683f 681e a0bf 421b 5e3e
000001b0: 157b c2be 6834 043f 8ee4 483e 08a0 b6be
000001c0: 816c 64be ca96 1ebf 65f9 9c3e 0566 8abe
000001d0: b8d8 9e3e 0279 5c3e d458 f33e 8b7e 21bf
000001e0: 4b4b dd3e b848 7cbe cc40 9c3e 5151 0c3f
000001f0: 50b9 343f 1c24 e53e 25f0 26bf 0fe2 813f
00000200: c7ca c3be 0e11 85be 82fd 1d3e b363 703f
00000210: 57e6 393f 0386 eabe fb58 c4bd 7471 583e
00000220: e9e4 b5be 32c9 763f 0c11 58be 925e a93e
00000230: 24c8 5ebf 6143 973c cb56 5dbe 383d 233f
00000240: 1f4b 98be d017 90bf 2805 283f 748e bb3e
00000250: 55b3 76bf 01aa d93d ca02 e53e 8883 56bf
00000260: 6c8a 923e ddcd fb3b 5303 b2be 23f0 cb3e
00000270: 37b3 f53e 6cc4 b33e ca85 84be 4adb 4cbe
00000280: 5a6a b6be e61c c13e 0bf6 96be cdbd bfbe
00000290: ac23 683e c11b a93d 11f2 debe 7fce 03bf
000002a0: b857 f33d ac54 153d 7462 babe 0690 1ebf
000002b0: 1cc3 efbe 4055 913e 1a00 333f dc1e 10bf
000002c0: d5a7 8a3e 8d9d 5e3f 399a 3b3e 5378 54bf
000002d0: e78d 45bf db8c a93d 4088 18be 39c8 0c3f
000002e0: a57b 3bbf ce92 413f 24f9 4a3f f8be 4c3f
000002f0: f8b5 1fbd 944f 3ebc eb70 133f c5a6 8e3e
00000300: 5754 443e d81b 113e d8f8 063f bfb2 093f
00000310: 5551 1ebb 8498 dc3e be04 403e 5a79 613e
00000320: 6a86 97be 087d 36bf 08fd 36bd 8509 a1be
00000330: eb0a 003f da27 1c3f 9465 2fbd 2472 d8be
00000340: d148 f6be 04fa 51be 9051 2d3d a040 c8bd
00000350: e448 b73e fa1c 6e3e cb10 c53c 9dc4 15bf
00000360: 9984 123f 275f 0fbf 5d9d bbbe d2cf fd3e
00000370: 3120 83bf 69b2 1d3f c865 acbc 4137 843d
00000380: 1a2d 003e d0ef 4fbe 8999 2e3e ca79 933f
00000390: 882b 333e af80 2ebf b131 44bf 0059 1bbf
000003a0: c258 48bf 4c4a 3b3f 8772 7ebc 3e7e f8bd
000003b0: 23f2 f23e 9576 d83e 005c 7b3d 1899 02bf
000003c0: a2a9 15bf f776 eb3b 6d69 f9bc 59b8 d63e
000003d0: 2959 c8be 5aa1 9abf f90e f3bb bcb0 95be
000003e0: 741a 083f 9351 b8be d2b8 52bf f0fe 453e
000003f0: d901 8cbf 1798 83bd ca48 b53d ccb7 36be
