bert_fragoza/3059_W21C.npy (npy, 3200 bytes, 1 tensors)

array f4 [1, 768]
0	0xbe08b2f4	-0.13349515
1	0xbf1eabcb	-0.61980885
2	0xbf0df950	-0.55458546
3	0x3f43a218	0.7641921
4	0xbe04e584	-0.12978178
5	0x3dabbf58	0.08386105
6	0xbd08d6c1	-0.03340793
7	0x3e0886c7	0.13332663
8	0xbe1ac06f	-0.1511247
9	0x3efff077	0.49988148
10	0x3daa900c	0.08328256
11	0xbdf0ee05	-0.117641486
12	0xbef1e1a3	-0.4724246
13	0x3e31367b	0.17305939
14	0xbecf6239	-0.40504625
15	0x3c3b3bde	0.011427848
16	0x3eb3d065	0.3511993
17	0x3f486716	0.78282297
18	0xbd5eaae6	-0.0543622
19	0xbe3934d7	-0.18086563
20	0x3fdecfa0	1.7407112
21	0xbfa12d95	-1.2592036
22	0xbd776b31	-0.06040496
23	0xbd6554f8	-0.055989236
24	0x3e0b1aac	0.13584393
25	0xbeaa53e4	-0.33267128
26	0x3f6782f3	0.9043419
27	0xbfab92d2	-1.3404181
28	0xbedf9b32	-0.43673092
29	0x3f0dee36	0.55441606
30	0x3f78124d	0.96902925
31	0xbf4c5f54	-0.7983296
32	0x3fee57fe	1.8620603
33	0xbe773c36	-0.24144062
34	0x3f0ab701	0.5418549
35	0x3d929ee8	0.07159215
36	0xbf77b187	-0.9675526
37	0xbf97141b	-1.1803011
38	0xbf8105a8	-1.0079851
39	0xbf58ba62	-0.846594
40	0x3eb2283c	0.3479632
41	0xbf43365b	-0.76254815
42	0x3e219b45	0.15781887
43	0xbe36d84f	-0.17855953
44	0xbf31db2e	-0.69475067
45	0xbeec4aec	-0.4615091
46	0x3e9b2420	0.30301
47	0xbf25598c	-0.6458976
48	0x3eb462ea	0.35231715
49	0xbf5cb6c8	-0.862164
50	0xbe2f9d2c	-0.171498
51	0x3f0eec77	0.55829567
52	0xbf47e26c	-0.7807987
53	0x3de5feaf	0.11230218
54	0xbea9ad48	-0.33140016
55	0xbf61f623	-0.882662
56	0x3d7ee692	0.062231608
57	0xbeede234	-0.46461642
58	0x3bf873c9	0.007582162
59	0xbf0928ff	-0.5357818
60	0x3f3b869a	0.7325226
61	0xbea150be	-0.31506914
62	0xbf02796f	-0.5096654
63	0x3eae1554	0.34000647
64	0x3ea55299	0.3228958
65	0x3f1b291d	0.6060961
66	0xbe9dc045	-0.30810753
67	0xbf4bb995	-0.7958005
68	0xbf86f436	-1.0543277
69	0x3a844c7d	0.0010093596
70	0x3ed5f8af	0.41791293
71	0xbf5f5aa7	-0.872477
72	0xbf49eca4	-0.7887671
73	0x3d25ff3a	0.040526606
74	0xbf026d78	-0.50948286
75	0xbf86d375	-1.0533282
76	0xbe8953ca	-0.26821738
77	0xbe16554d	-0.14680977
78	0xbefb2d05	-0.49057785
79	0xbd6c515e	-0.057694785
80	0xbf34df82	-0.70653546
81	0xbdbe8f50	-0.093046784
82	0x3e1b00d3	0.15137033
83	0x3b8ba799	0.0042619226
84	0x3f428124	0.759783
85	0xbe89f5c8	-0.2694533
86	0x3e0de560	0.13857031
87	0xbf3e599f	-0.743555
88	0xbeb4536c	-0.35219896
89	0xbef6c807	-0.48199484
90	0x3ef1da64	0.4723693
91	0xbf54c520	-0.8311329
92	0x3eb087f7	0.34478733
93	0xbe5b9d41	-0.21446706
94	0xbf33016b	-0.6992404
95	0x3f8c6dff	1.0971068
96	0x3ea06051	0.31323484
97	0x3f154847	0.5831341
98	0x3f3d7286	0.74002874
99	0xbebc7cbe	-0.3681392
100	0x3f187da6	0.59566724
101	0x3e971c40	0.2951374
102	0xbf285043	-0.6574747
103	0x3f2b46f7	0.6690516
104	0x3ef765c6	0.48319834
105	0x3f540ddc	0.8283365
106	0xbf4f772d	-0.8104122
107	0x3f3bd0b5	0.73365337
108	0xbd835fcf	-0.064147584
109	0x3ed9502b	0.42443976
110	0x3f05d755	0.52281696
111	0xbf29da12	-0.66348374
112	0xbea8df4f	-0.3298287
113	0xbf363d8e	-0.71187675
114	0x3e8ebbb8	0.27877593
115	0xbe16cd8e	-0.1472685
116	0x3e37e25c	0.17957443
117	0xbf0e7999	-0.55654293
118	0x3f5b69a7	0.8570809
119	0xbe89e9b0	-0.26936102
120	0xbdc0509a	-0.093903735
121	0xbed81702	-0.42205054
122	0x3eb022cd	0.3440155
123	0x3e810d13	0.25205287
124	0x3e9d47e8	0.30718923
125	0x3f4b21fb	0.79348725
126	0xbf0a3c88	-0.53998613
127	0x3f16eba4	0.5895331
128	0xbf5ad921	-0.8548756
129	0xbf0bf223	-0.54666346
130	0xbf95f51d	-1.1715428
131	0x3ea4e9ef	0.32209727
132	0x3ed5da11	0.41767934
133	0xbf085792	-0.5325862
134	0xbe1ad4e2	-0.15120271
135	0x3f2d1f7d	0.6762617
136	0x3f02c5e4	0.5108321
137	0x3f8bd84f	1.0925387
138	0xbd6659f4	-0.05623813
139	0x3d15a74f	0.03653651
140	0xbfa2d5d3	-1.2721504
141	0xbe3722e5	-0.17884405
142	0xbf1eb59c	-0.61995864
143	0x3e87aa64	0.26497185
144	0xbf3acad0	-0.7296572
145	0xbfa95ddf	-1.3231772
146	0x3e89f2a1	0.26942924
147	0x3ed22623	0.4104472
148	0xbf865662	-1.0495112
149	0x3e2d5b41	0.16929342
150	0x3fdbdd65	1.7176939
151	0xbee026af	-0.43779513
152	0x3f5ad8be	0.8548697
153	0x3d0930e3	0.033493888
154	0xbee5c8c2	-0.4487973
155	0x3f368daf	0.7130994
156	0xbd3fcf6f	-0.046828683
157	0xbe225636	-0.158532
158	0xbf1d0942	-0.6134225
159	0xbdbe8fab	-0.09304746
160	0xbe6622c3	-0.22474198
161	0xbdab35a3	-0.0835984
162	0xbebde1c9	-0.37086323
163	0x3bf588ef	0.0074931304
164	0xbe62d696	-0.2215217
165	0xbcf4be14	-0.029875793
166	0xbee06947	-0.4383032
167	0xbef1e45b	-0.47244534
168	0xbe193b37	-0.14963995
169	0xbf4dd5b6	-0.8040422
170	0xbea90430	-0.33011007
171	0xbf5568ae	-0.83362854
172	0xbeaabe37	-0.33348247
173	0x3ebb0277	0.36525318
174	0x3f86f749	1.0544215
175	0xbe90abce	-0.28256077
176	0xbdc53bbc	-0.09630534
177	0x3f63b112	0.8894206
178	0x3ee78fe2	0.4522696
179	0xbeb84708	-0.35991693
180	0xbf87c552	-1.0607092
181	0xbefc34c1	-0.49258998
182	0x3d4f21f2	0.050569482
183	0x3f4bc977	0.79604286
184	0xbe335db4	-0.17516214
185	0x3f3217ec	0.6956775
186	0x3ebe9526	0.37223166
187	0x3f66c723	0.9014761
188	0xbeaedbba	-0.34152013
189	0x3e52e62b	0.20595615
190	0xbcdcdc7d	-0.026960606
191	0x3d1b3bfc	0.037899002
192	0x3ef86860	0.48517132
193	0xbed74d18	-0.42051005
194	0x3f737d75	0.9511331
195	0x3f5084d6	0.8145269
196	0x3ca4c7d2	0.020114813
197	0x3f60b58c	0.8777702
198	0xbe1f6250	-0.15564847
199	0x3f07a9a3	0.5299322
200	0xbecf8833	-0.405336
201	0xbf3ee957	-0.745748
202	0x3e7906fb	0.24319069
203	0xbe98a4f7	-0.29813358
204	0x3f06f19e	0.5271243
205	0x3f35ff61	0.710928
206	0x3e2b7b8e	0.16746351
207	0xbf6078d1	-0.8768435
208	0xbdcc6bf7	-0.0998153
209	0x3dc83d3e	0.09777306
210	0x3cf15590	0.029459745
211	0x3dd90c6e	0.10598074
212	0x3e27e6e7	0.16396676
213	0x3f40d1c9	0.75320107
214	0xbddc27a6	-0.1074975
215	0xbf8b4a82	-1.0882113
216	0x3efe75b7	0.49699184
217	0x3e7d7c68	0.24754488
218	0xbe994cd4	-0.29941428
219	0xbc530793	-0.012880224
220	0xbf7c217d	-0.984886
221	0x3f52c33e	0.82329166
222	0xbe01c052	-0.1267102
223	0xbe34fa2a	-0.17673555
224	0x3e08f22c	0.13373631
225	0xbec0cf43	-0.37658128
226	0x3e0eb5e0	0.13936567
227	0x3f7da1c9	0.9907499
228	0xbdca175d	-0.098677374
229	0x3ee637e4	0.44964516
230	0xbef360c4	-0.47534764
231	0xbf93acc1	-1.1537095
232	0x3cbe8b4c	0.023259781
233	0x3f026b08	0.50944567
234	0xbeb23fa5	-0.34814182
235	0x3cdda00c	0.027053855
236	0xbb5fac3a	-0.0034129755
237	0x3e895bb3	0.26827773
238	0x3ed879ad	0.4228033
239	0xbe1e8278	-0.15479457
240	0xbe1ba402	-0.15199283
241	0x3f228cfe	0.63496387
242	0xbead0b66	-0.3379776
243	0x3f488fc7	0.78344387
244	0xbe8f9b7b	-0.2804831
245	0xbfa373cf	-1.2769717
246	0x3f08a19b	0.5337159
247	0xbea973b6	-0.33096093
248	0x3f0bb334	0.5457032
249	0xbf307505	-0.6892856
250	0xbe4a2d01	-0.1974373
251	0x3ebf02df	0.37306878
252	0xbfc2def5	-1.5224291
253	0x3dff0e8e	0.12453948
254	0x3e32867f	0.17434119
255	0xbe916bcd	-0.28402558
