bert_fragoza/9453_W222S.npy (npy, 3200 bytes, 1 tensors)

array f4 [1, 768]
00000000: 6662 793e ca25 59bf 212f c4be 93c1 d73e
00000010: 332c efbe a1d3 86be 7a94 a63e b729 a33e
00000020: 6c28 59bf 8b30 c1be 1da4 9bbe 955d 7f3e
00000030: 6e65 373f 2ae5 11bd 81b1 49bf a4af 59bd
00000040: 89a0 823f 4cb4 8c3e 7e9a 993c 7c84 b83d
00000050: c63c 303f d532 00bf c001 9dbe 1d79 76be
00000060: ad0b b3be b94a 7c3e bfbc 273f 443a 80be
00000070: 071b fdbd 733c 0d3f 1254 93be 3d54 67bf
00000080: 77f8 7a3f 7ced 6abf d563 963d d2d2 eabd
00000090: ca22 c6be b91c 09bf db91 33bf 5089 a5bf
000000a0: af7b f53e 7f35 4b3b 5cae d5be 3bdb 593d
000000b0: b587 fcbe 787e e43e e7de 09bf d226 efbd
000000c0: 1f69 d13e 49e4 4cbe 1b5f 0e3e 8e32 7bbe
000000d0: 8159 43bf d04e 4ebf 6c3c 9ebd dc61 42bf
000000e0: 0c07 41be 70d2 153e 06d3 a53c 724e d43e
000000f0: 6e25 553e dcbd 923e 6431 f6bd 3516 023e
00000100: 072c 873d 365f 15bf e12a 053e ecc0 c0be
00000110: ecc7 adbe 425b 263f 7549 623f 8e78 293f
00000120: afcc b53e b527 503d 0890 3dbe 2459 19be
00000130: 02d7 5fbf 0388 97be 72c7 62bd dacd 103f
00000140: 9f14 0fbf 9588 febe f1ea c8be eca7 9fbe
00000150: 24d8 a83e f2fb fb3b 695f 14be f190 e7bd
00000160: 3d35 ecbe b52b c0be 1f3c b2bd 0f29 e2be
00000170: 833b 6a3f bcc3 7e3e 7ca9 e43b 13ed ed3e
00000180: 1710 133e d252 e33b 9f2e 423e e7e9 1ebf
00000190: 187d cb3e dd23 bbbe cfa2 dfbe e1c5 57bd
000001a0: b706 ab3e a3c4 5a3f 3bf0 29bf 3f45 52bd
000001b0: c352 39bc edb1 e6be 4b6c 5c3f c351 a6bc
000001c0: ec7a 08be 24b9 f4be 1b3c 1abd e248 04bf
000001d0: bc7c 303f ab91 723e 3fc5 e9be 83a3 46be
000001e0: fe8b 27be 673d 6b3e adea 633e c231 4bbe
000001f0: 4984 213f f007 ce3d 2798 32bd 33d6 2d3f
00000200: 03a1 0abf 995e 13bf e0cd b2be 5353 ab3e
00000210: f4cc c43e af33 c1be 33d2 30be 2a8b a53d
00000220: cdaf a23d 6296 6b3f c108 e6be 5ccd 473f
00000230: 7289 acbe 9c0a 2abf 4291 cabe ad92 9f3c
00000240: 67b5 1e3b d6fb 2dbf 3383 193f 6691 223e
00000250: 25c5 c8bd b27d fc3d 5b2f 003f b969 fbbe
00000260: b429 d23e 2e91 fb3e 9aa5 10bf eab1 bf3e
00000270: 98d0 c5be f46a a2be c428 0f3e 8433 103e
00000280: ec6c efbd bf37 cf3d 6765 8bbe 4922 9e3d
00000290: c069 d93e bcaf 643f 5539 15bd 0c6b 83bf
000002a0: 18bb 623e c301 d9be 24e7 0ebf 258a 943e
000002b0: 2a29 983d 9652 3b3f 7d08 9f3e a60b 8a3e
000002c0: 448a febe 5151 f53e 8db1 c7be 41af d7be
000002d0: 40df 0abf bbab 013f 6820 d53e 0771 bd3e
000002e0: ab42 afbc d26e 203f 1d43 d93e 556f 96bd
000002f0: 5071 e83e 3bec 68bd ebe5 823e 9195 163f
00000300: 2fcf 4f3e 97ba b5bd 5329 39bf 9a69 803e
00000310: 6762 ec3c 1fde 443f a631 95be 83b3 163f
00000320: 9e4d 96be f2a1 c83e 9364 babe d4ef dabd
00000330: 40ba 3d3e caff afbd 0714 743f 1d16 3bbc
00000340: 5f27 2bbf 2f3e 14be 8939 29be 2724 043f
00000350: e0a5 5b3d 0140 933e a6a6 efbc 1fbc 12bf
00000360: cbd0 8fbe 51ae adbe 2f37 0e3c 4c81 a23e
00000370: 9061 f0be a300 793d 47a3 46be 2e5f de3b
00000380: 6705 d33e 71b2 d03e ea8a bebd f4e3 5b3f
00000390: 5498 29be 19e2 a7be 9783 fdbe d4cd e9be
000003a0: 90e1 0d3e cfb6 4a3f 1be4 d0be c5af 313f
000003b0: d8a1 913e a40c e83e 1300 25bf 0883 313e
000003c0: 7c00 0d3e 0fba 1f3e 9e5f fc3d 920c bbbe
000003d0: 0346 bebe 0ee9 153e 52c5 bebd fb09 49be
000003e0: 734e 1c3f 66ce 573e 009b e1be 2487 933c
000003f0: 1e9e 1abf 1b68 d6be 3bc2 823e e713 033e
0.24353942 -0.84823287 -0.38317207 0.42139873 -0.4671341 -0.26333335 0.32535154 0.31867763
-0.84827304 -0.37732348 -0.30398646 0.24938042 0.71639144 -0.03561894 -0.78786474 -0.05314602
1.0205241 0.27481306 0.018750425 0.090096444 0.6884273 -0.50077564 -0.30665398 -0.24069639
-0.34969845 0.2463788 0.6552238 -0.25044453 -0.12358671 0.55170363 -0.28775078 -0.9036291
0.9803538 -0.9176862 0.0734326 -0.11465992 -0.38698417 -0.5355945 -0.7014443 -1.293253
0.47945926 0.0031007228 -0.41734588 0.05318759 -0.49322286 0.44627738 -0.53855747 -0.11677326
0.40900514 -0.20008959 0.13903467 -0.24531004 -0.7630845 -0.8058901 -0.07726368 -0.7593057
-0.18850344 0.14631057 0.020242225 0.414661 0.2081506 0.28660476 -0.12021139 0.12703784
0.066001944 -0.58348405 0.13004638 -0.37647188 -0.3394159 0.64983 0.88393337 0.66199577
0.35507724 0.050819118 -0.18511975 -0.1497541 -0.8743745 -0.29595956 -0.055365987 0.56564105
-0.5589084 -0.4971358 -0.39241746 -0.31182802 0.32977402 0.0076899463 -0.14489521 -0.11306942
-0.46134368 -0.37533346 -0.087028734 -0.4417195 0.9149706 0.24879354 0.006978212 0.46469936
0.14361607 0.006937363 0.18963097 -0.62075657 0.39743876 -0.365508 -0.436789 -0.052678946
0.3340356 0.85456294 -0.6638219 -0.05133557 -0.011311236 -0.45057622 0.8610274 -0.020302659
-0.13328141 -0.477975 -0.037654977 -0.5167371 0.6894033 0.2368838 -0.456583 -0.19398312
-0.16361997 0.22972642 0.2225749 -0.198432 0.63092476 0.10060108 -0.043602135 0.6790497
-0.54151934 -0.5756622 -0.34922695 0.3346201 0.38437617 -0.37734744 -0.17267685 0.08083184
0.079436876 0.9202634 -0.44928554 0.7804773 -0.33698612 -0.6642244 -0.39563948 0.01947912
0.002421701 -0.67962396 0.5996582 0.15875778 -0.09803227 0.12328662 0.5007226 -0.49104097
0.41047442 0.491342 -0.5650269 0.37440425 -0.38635707 -0.31722224 0.13980395 0.14082152
-0.11690697 0.101180546 -0.272258 0.07721383 0.42463493 0.8933065 -0.03643163 -1.0267043
0.22141683 -0.42384157 -0.5582144 0.29011646 0.074297264 0.7317289 0.31061164 0.26962012
-0.49714863 0.47913602 -0.39002648 -0.42125896 -0.542469 0.50652665 0.41626287 0.37000296
-0.021394094 0.626691 0.42434016 -0.07345454 0.4539895 -0.056865912 0.25566038 0.5882197
0.20293878 -0.0887348 -0.7232868 0.25080568 0.028855516 0.7690143 -0.2913944 0.58867663
-0.29356092 0.39186054 -0.36404857 -0.10690275 0.1852808 -0.0859371 0.9534306 -0.011418846
-0.6685695 -0.14476846 -0.16525854 0.51617664 0.053624988 0.2875977 -0.029254269 -0.573183
-0.28088984 -0.33922055 0.008680149 0.3173927 -0.46949434 0.060791623 -0.19398223 0.0067862486
0.4121506 0.4076114 -0.093038395 0.85894704 -0.16562015 -0.32789686 -0.49514458 -0.45664847
0.13855577 0.79185194 -0.4079903 0.6940883 0.2844379 0.45322144 -0.6445324 0.1733514
0.13769716 0.1559832 0.12322925 -0.36533028 -0.3716279 0.14639685 -0.093149796 -0.19632713
0.61057204 0.21074829 -0.44063568 0.018008776 -0.6039752 -0.418763 0.2553881 0.12800561
