bert_fragoza/95_W234R.npy (npy, 3200 bytes, 1 tensors)

array f4 [1, 768]
00000000: 1e80 913b caf3 2abf 634d 08be c5ce 4c3e
00000010: 2cfe 47bc fedb 0dbf 6b7a cf3e 41a6 6a3d
00000020: 0ffe f3be 0e8a 91bb ce9d 70be 325e 7bbe
00000030: 4795 d13b 1a48 1c3f a03a 6ebe d16b 6f3e
00000040: f2c7 e33e ec3f ab3e 5e92 2b3e 508c 39bd
00000050: e1b3 783f 185c 26bf 88b3 c3be d44b d23d
00000060: d2c0 903e 8865 d13c 30e5 853f c85c bebe
00000070: 984d 06bf d343 313f 5c5a 1f3d 8907 12bf
00000080: d4b6 a83f d782 1ebf 7363 213f 3c58 68be
00000090: 6b79 c5be c466 dbbe 6182 10bf d262 26bf
000000a0: b42a 283f 1d35 7cbd ef5a efbb 9c72 ac3e
000000b0: a022 c3be e6ac bfbe c6f5 083f ac61 51bf
000000c0: 46a4 e33e 699a 7bbe 6f41 a63d 9155 84be
000000d0: 6efe 3fbf afea b3be 6a98 05bf 1fa7 87bf
000000e0: 5fde 74be c9af 7cbe ac03 023e 191f a93c
000000f0: 4f29 823c 6146 92be bfe2 cdbd f172 6c3d
00000100: d833 2d3e 2717 f4bc 2c88 cabd a68f 37bf
00000110: ecac 03bf 39a2 5d3f e2fc 863d fb33 f33e
00000120: 48e0 1dbe a991 5a3e dc4d 0a3d a62d f8be
00000130: 68a2 57bf f564 c4be 8d95 b6be bb19 1abf
00000140: 0135 04bf 6b61 bcbe 6018 04be 0e56 9bbe
00000150: 7259 ed3e 5b86 f03d 03fe dabd 1536 03bf
00000160: 8d3f dcbe 9097 25bd d4e8 32be 81e3 21bf
00000170: c3a5 833f 13ef d6bb c8fa 02be 613c ad3e
00000180: d4a4 213f 54bd 913e e5bb 1f3e eb34 12bf
00000190: 2772 513e 9a51 a33d cd6c 21be 0441 683e
000001a0: e7dd 8c3f dde9 063f 41df c4bf 8d33 d43e
000001b0: d924 24bf 8192 233f ec7f c53e f6e5 c2be
000001c0: 652b 8abd 0f96 c9bf f5b1 863e 6dd3 dc3c
000001d0: 251d 5d3e e185 7c3c 6ecc 683e 1b25 29bf
000001e0: 97ba e33e c5cd 02bf 4d4d 09be ab29 393f
000001f0: 8ed8 c53e 277d 093f 34ed 0cbf 1b54 5e3f
00000200: 5b35 c23d a969 ffbe 3c50 5cbe 4044 df3e
00000210: 09f8 2d3d 9303 1dbf 7cfb 16be a319 993e
00000220: 98ec e13d b17b 173f 3eb0 eabe 964c c1be
00000230: 42e1 43bf 9393 99bd 2f29 4bbf db12 513e
00000240: d46b 3abc c585 94bf 2036 9d3e fea0 8f3e
00000250: 72a7 79bf c092 723e 119e b43e d37d a1bd
00000260: 4b6a 003e 7c68 90bd 0cbd 15bf 72d1 283f
00000270: c2b7 1c3e 2ac6 5b3d 5c3b fabc 3ee1 a83e
00000280: d42e 89bc 53e2 113e 8202 34bf c379 7ebe
00000290: 2854 493e 107f 113f a57a f6be eb4c 58bf
000002a0: f71a 253d c78e 11bf 6f5b c7bd 2ff3 163d
000002b0: fa62 65be e57d d83e bb4b 933e f029 01bf
000002c0: 6363 85be 1424 2a3f 2a21 71be fb9c 5cbf
000002d0: 2f1e cabe 0390 9c3e ec94 403e fec8 313e
000002e0: b873 0e3e 0c83 183f 4544 ec3e 7f6e cf3e
000002f0: 37ff 463e 0943 d83e 1446 cd3e 3e28 fd3e
00000300: 9e06 8e3d 40e8 41be 1e60 2c3e 4a14 803e
00000310: 3685 babd 7e27 033f 065d 85be a5ef 403f
00000320: 955a 563d 4a72 dabd 6f17 af3e 5e4a 5bbe
00000330: 594d 833e 4cfc 863e 3116 ae3e bbe8 9abe
00000340: 6d79 fcbe 52b8 233e 7f27 6b3d 4c5b 7bbe
00000350: 5eb4 5d3e 52e6 a23e 7c53 d93d 77be 29bf
00000360: cd34 bd3e c239 85bd 2092 1fbe ae37 353e
00000370: de0b 4abf 788f e23e 0372 b6be 8c50 d93d
00000380: 9c1b 193f 1658 bfbe 5939 5b3e ca20 843f
00000390: f540 87bc 2748 8bbe 831f cfbe 829d 9bbf
000003a0: 4cc2 e6be 73fa 2c3f aca4 913d 61d3 d03e
000003b0: 1f33 233e 77fa 973e 0970 4abe ba79 c8be
000003c0: 9f98 58be 2e79 453e a104 863e 9662 1b3e
000003d0: e06c 24bf 783e 9dbf 657d 4b3d afc6 26bf
000003e0: de0c c83d 4fea 62bb e019 e1be 79c5 053f
000003f0: 2ada 91bf cadf cfbe 669c 45be 63ff 613e
0.0044403216 -0.6677824 -0.1331077 0.20000751 -0.012206595 -0.55413806 0.40523085 0.05728746
-0.4765477 -0.004441506 -0.23497698 -0.24547651 0.006395969 0.6104752 -0.23264551 0.23380972
0.44488484 0.33447206 0.16755053 -0.045299828 0.97149473 -0.64984274 -0.3822291 0.10268369
0.2827211 0.02556111 1.0460567 -0.3718016 -0.5246215 0.69244117 0.038904533 -0.5704275
1.3180795 -0.61918396 0.6304237 -0.22689909 -0.38569197 -0.4285184 -0.5644894 -0.6499454
0.6569016 -0.06157409 -0.0073045413 0.3368119 -0.38112354 -0.374366 0.5350002 -0.8178966
0.44461268 -0.24570622 0.08117949 -0.25846532 -0.74997604 -0.35139987 -0.5218569 -1.0597876
-0.23912953 -0.24676432 0.12696713 0.020644711 0.015888838 -0.2856932 -0.10053014 0.057726804
0.16914308 -0.029796196 -0.09889254 -0.71703565 -0.5143573 0.8657566 0.06591202 0.47500595
-0.15417588 0.21344627 0.03376566 -0.48472327 -0.8423219 -0.38358274 -0.35660973 -0.6019551
-0.5164338 -0.36793074 -0.12899923 -0.30339092 0.46357304 0.11744376 -0.1069298 -0.512544
-0.43017235 -0.040427744 -0.1747163 -0.6323777 1.0284961 -0.0065592616 -0.12790978 0.33835128
0.6314213 0.28464758 0.1559902 -0.57111996 0.20453702 0.07974549 -0.1576416 0.22681051
1.1005219 0.527006 -1.5380632 0.4144558 -0.64118725 0.6389542 0.3857416 -0.3806607
-0.06746558 -1.5748919 0.26307645 0.026956284 0.21593149 0.015412779 0.22734234 -0.66072243
0.44478294 -0.5109523 -0.13408394 0.72329205 0.3864178 0.5370659 -0.55049443 0.86847085
0.09482833 -0.498853 -0.21514982 0.43606758 0.042472873 -0.6133358 -0.14744371 0.29902372
0.11031455 0.59173113 -0.45837587 -0.37753743 -0.7651559 -0.07498851 -0.79359716 0.20417349
-0.011378247 -1.1603323 0.30705357 0.28052515 -0.97521126 0.23688793 0.35276845 -0.07885327
0.12540548 -0.07051179 -0.5849159 0.6594459 0.15304473 0.05365578 -0.030545883 0.32984346
-0.016745962 0.14246492 -0.70316327 -0.24851136 0.1966101 0.56834507 -0.48140445 -0.8449237
0.04030892 -0.56858486 -0.097342364 0.03685301 -0.22401038 0.4228355 0.28768715 -0.50454617
-0.2605239 0.664613 -0.23547807 -0.86177033 -0.39476153 0.30578622 0.18806809 0.17361829
0.1391133 0.5957496 0.46145836 0.4051399 0.19433294 0.42238644 0.40092528 0.49444765
0.06934856 -0.18936253 0.16833541 0.2501548 -0.09107439 0.51232135 -0.26047534 0.7536567
0.05233248 -0.1066633 0.34197566 -0.21415088 0.2564495 0.26364362 0.34001306 -0.30255684
-0.4931139 0.15988281 0.057410713 -0.24546546 0.21650836 0.31816345 0.106116265 -0.6630625
0.36954346 -0.06505157 -0.15583086 0.17697021 -0.7892436 0.44250083 -0.3563386 0.10611066
0.59807754 -0.37371892 0.21408595 1.0322506 -0.016510466 -0.27203485 -0.4045373 -1.2157443
-0.45070112 0.67569655 0.07111487 0.4078627 0.1593747 0.29683277 -0.197693 -0.3915537
-0.2115197 0.19284508 0.26175407 0.15174326 -0.6422863 -1.2284689 0.049680132 -0.6514692
0.09768079 -0.0034624522 -0.43965054 0.52254444 -1.1394703 -0.40600425 -0.19297943 0.22070079
